Artificial_Intelligence/Artificial Intelligence/Assets/ML-Agents/Examples/3DBall/TFModels/RollerBall.onnx (onnx, 73912 bytes, 7 tensors)

network_body._body_endoder.seq_layers.0.weight f4 [128, 8]
00000000: 3097 1abf 0a43 a7be 3ab4 ca3e 668b ba3d
00000010: f712 ec3d 066c 85be 71cf 57bd b4b7 d23e
00000020: fb3c 84be f6dd 05bf 552b fabd 9dfc a23c
00000030: eec4 153f 9103 9b3d 9813 593d fc21 efbe
00000040: 1a8a e23e d5ed e9be b4aa f03d d97f e03e
00000050: 5d7f 76be 0cde e7bd 151d 85be b41c 04bf
00000060: cef1 60be 1776 1c3f e775 fe3d 9ff7 823e
00000070: 5951 cd3e 63e2 333b 2d0b 2cbf 665f 80bd
00000080: fb3a 7f3f 1dc7 c2be c293 aabe 0099 61bf
00000090: d99a 903e 3f4e 91bc 1e35 6a3c 87a3 46be
000000a0: a208 0bbe 2cd3 693d 835a f8be 0246 f73e
000000b0: a983 b83d 318a cebd b745 3abe f3ae 60be
000000c0: 3e07 0cbf ac38 1fbe 7c3a ab3e 63ae d53e
000000d0: 5df6 1ebe 2718 9e3e 90e4 6a3e 26c7 afbe
000000e0: ce13 5abe 409d 01bf 0323 d4be 66ee d6bd
000000f0: 3c7e dabe 753c e63e e228 27bf 28b8 033f
00000100: 133e 23be a746 fd3b ae8f fe3e bdcc 62be
00000110: c1a0 cb3e d592 8dbc c328 71bc e973 6cbe
00000120: f415 603f e24d 31be f93f 0abe 3c64 233f
00000130: 3bfc 173e 36dd ee3e 79c2 de3d 08ad 883e
00000140: a943 f3be 2e20 98be 9145 9ebe e071 25bd
00000150: 3086 ddbe 6a6f 503e 6f60 74be fcec 9dbd
00000160: 1846 62bf 82b5 2abe 7f63 163e 788b 8dbe
00000170: fe5c 85be 0fed 7a3e 35f4 aa3e dc14 933e
00000180: 957e a73e 9cf9 683e b347 9cbd 9a2d 253f
00000190: e352 d8bd 72ec 313f 13ee da3c 31d9 173f
000001a0: 1f80 7c3f 7ca5 a93e d863 723e e991 3a3e
000001b0: 39a4 94be 35f6 08be c281 74be 9473 a5bd
000001c0: 417b f2be 9b79 3bbd 0cc8 273e d7d6 0f3e
000001d0: 9925 cb3d c09d a93e 97fc 2d3d 5a58 19be
000001e0: e943 cfbe 2c69 17bf bd3b 0abf 6a71 ddbc
000001f0: 4922 2ebf 1201 0d3e 0a04 043f 7a97 4dbf
00000200: 9bed e4be 584d 43be f31b e53d f04e 493e
00000210: b1ff d23e 4178 f83e c5e0 be3e 9e59 e5bc
00000220: 34c1 50bd 952d 97be 7731 8b3d d022 9d3e
00000230: de02 373e d379 a33d 4d23 e2bd f0d0 bbbe
00000240: 0575 09be 28d1 9fbe a550 103f e67b 3f3d
00000250: 2961 abbe bf8a 8dbe 387a 05bf 2520 0b3f
00000260: 4965 e63e 5753 bebd 7c7a cfbc 8d90 25be
00000270: 482e 5ebe 0cfd 863e 445d 823d dc62 89bf
00000280: 8d28 a6be cfa1 2fbd 883f e93d 09e8 0e3d
00000290: 618d 20bf c678 75be f5e2 ea3d 106c 00bf
000002a0: f36d 0c3d e637 a43c 2463 b23d 7833 2cbd
000002b0: 1956 b53e ae82 1b3f d41e b7bd f313 393f
000002c0: 1321 27bd 4de3 403f fb72 7ebe 5be9 143f
000002d0: 2b03 be3e b370 5f3e 15b1 82be e436 c1ba
000002e0: 4c27 843c 3af3 43be 9bd1 9abe 338d 85bd
000002f0: c839 5abf a1e2 05be aeb6 773e 35fe 1fbf
00000300: b22e 13bd f865 86be e134 1c3f 060a 273f
00000310: ecfd 77bd 2513 e63e c20f 0e3f 8ef4 7bbe
00000320: a8b6 cd3d 997a 913f 629f 53be 4f44 f33e
00000330: 7e41 583e e7e8 ab3e 732f 03be bbbf f4bd
00000340: 1ee5 b2be d5b1 70be 78eb 46be 5417 45bf
00000350: dda2 00bd 2c47 653e dffd 65bf 3166 dd3c
00000360: b93a 6dbe 8540 0a3c 90b8 1f3f 71b5 be3e
00000370: 02bc 933e 7536 263f cd0c 2b3e 928e 8b3e
00000380: 23d0 d5bd 2fd9 853d ef46 48be bb4d 5b3e
00000390: 07d4 9fbe 47ab a8be 2e81 4e3e 565d 8dbe
000003a0: 7d98 653f 677a 4e3e 4990 173f 4f46 a13e
000003b0: ee29 823f ced4 a13e 6fb9 09bd 9ff1 47bf
000003c0: 3048 0f3f b0b8 393c 5896 f0be 618d e53e
000003d0: bc6d d3bc d465 0e3f 41e0 2c3e 3328 e1be
000003e0: ff99 d2bd 1d72 bfbe 24e6 c33e b58a 24be
000003f0: 006e 733e 188f 0fbf a83a 963e 6b16 74be
-0.60386944 -0.32668334 0.39590627 0.091086194 0.11527055 -0.26058978 -0.052688066 0.4115578
-0.25827774 -0.5229181 -0.12215296 0.019895846 0.58503616 0.075690396 0.0529972 -0.46705616
0.44245988 -0.45689264 0.11751309 0.4384754 -0.24072023 -0.11321649 -0.2599875 -0.516063
-0.21967241 0.6111769 0.12424832 0.25579545 0.40101126 0.002744817 -0.6720455 -0.06268196
0.9969937 -0.38042536 -0.33315855 -0.88124084 0.2824314 -0.017737506 0.014294891 -0.19398318
-0.13577512 0.057086155 -0.48506555 0.482956 0.09009487 -0.10084952 -0.18190657 -0.21941738
-0.5469855 -0.15548962 0.33443058 0.4173461 -0.15523668 0.30877802 0.22938752 -0.34331626
-0.21296617 -0.5063057 -0.41432962 -0.1049469 -0.42674434 0.44968 -0.6529676 0.51452875
-0.15941648 0.0077293697 0.49718994 -0.22148414 0.39771083 -0.017281929 -0.014719191 -0.23091091
0.875335 -0.17314866 -0.13500966 0.6382482 0.14842312 0.46653146 0.108769365 0.26694512
-0.47512558 -0.2971205 -0.3091245 -0.040391803 -0.4326644 0.20355001 -0.23864911 -0.07711217
-0.88388205 -0.16670802 0.14686392 -0.2764547 -0.2604751 0.24504493 0.3338944 0.28726852
0.32713762 0.22751468 -0.07630863 0.6452271 -0.105626844 0.6950141 0.02672485 0.5931578
0.98633 0.33134067 0.236709 0.18219723 -0.29031542 -0.1337517 -0.23877624 -0.080786854
-0.4735966 -0.04577027 0.16384906 0.14046799 0.099192806 0.33128166 0.042477217 -0.1497511
-0.404815 -0.59144855 -0.53997403 -0.02703162 -0.68021065 0.1376994 0.51568663 -0.8030926
-0.4471253 -0.19072473 0.111869715 0.19659019 0.41210702 0.48529246 0.3728086 -0.027996834
-0.050965503 -0.29526964 0.06796544 0.30690622 0.17872187 0.079822205 -0.11041889 -0.36682844
-0.13423546 -0.3121426 0.56373054 0.046749018 -0.33472565 -0.27644917 -0.52139616 0.54345924
0.4499915 -0.092932396 -0.02532696 -0.16168423 -0.21697342 0.26364934 0.06365445 -1.0733294
-0.32452813 -0.042878922 0.11389071 0.034889255 -0.6271573 -0.23971853 0.1146907 -0.5016489
0.034284543 0.020046186 0.08710316 -0.042041272 0.3541725 0.60746276 -0.08941427 0.72296065
-0.040803026 0.75346833 -0.24848549 0.5816857 0.37111792 0.21820335 -0.25525728 -0.001474109
0.01613202 -0.19135752 -0.3023804 -0.06521072 -0.8524442 -0.13074733 0.2419078 -0.62497264
-0.035933204 -0.2624967 0.61018187 0.6524967 -0.060544893 0.4493648 0.55492795 -0.24605009
0.100446045 1.1365539 -0.20666268 0.47513053 0.21118733 0.33576128 -0.12811069 -0.11950632
-0.34940428 -0.23505338 -0.19425762 -0.7698872 -0.03140532 0.22390431 -0.898405 0.027026268
-0.23166932 0.008438234 0.62390995 0.37247804 0.28854376 0.64926845 0.16704102 0.2725721
-0.104400896 0.06535565 -0.19558309 0.2141637 -0.31216452 -0.32943174 0.20166466 -0.27610272
0.89685804 0.2016388 0.59204537 0.31498954 1.0169046 0.3160767 -0.03362411 -0.7810306
0.55969524 0.011335537 -0.46989703 0.44834426 -0.025809161 0.5562413 0.16882421 -0.43975982
-0.10283279 -0.3739175 0.3826152 -0.16068538 0.2377243 -0.5607772 0.29341626 -0.23836677

network_body._body_endoder.seq_layers.0.bias f4 [128]
00000000: e032 873d 2dad 0dbc 1103 f5bc 60b9 343c
00000010: 2563 053d 8327 8b3d 569e 3abc 1345 2b3d
00000020: e2d3 61bd ceb2 39bb 3d78 0b3d 9620 db3c
00000030: dad4 b63c 19dc 533d 922c 183d 0bf1 74bc
00000040: 6257 fd3b e555 d4ba 7aa8 85bb 37ee 043d
00000050: 29e9 a5bc 5f91 4e3b abd6 683d ddf5 5f3c
00000060: 2248 dabc ac86 f23c a711 73bb 8d38 6f3c
00000070: 4ab3 b43c e5c8 1d3d 5f68 143d d81d 08bc
00000080: 04d9 c93c c45a 1f3d 48ad 233c bce7 593d
00000090: a664 a23d a999 9c3d 471f 993d c885 2e3c
000000a0: 5765 523d 4220 b43c 160c c83c 4f24 1f3d
000000b0: 0270 d43c aac3 b5bc 8552 e3bc b0f6 c8bc
000000c0: 5f0e 593c 41b9 d0bc 1629 433d 5144 fb3b
000000d0: 9281 003d 2bd4 d5bc 2c9b f23c 1b42 3eba
000000e0: c351 3b3d 345f 88bc 134e d43c 0bd1 93bc
000000f0: fb7e 603d 4b26 013c 3270 8d3b 0474 ce3c
00000100: 1f57 283d 3200 b4bb 9ca9 013d 277c 8d3d
00000110: 8421 093d bccc 4fbd 8e2e 0bbd 0477 843c
00000120: c4f5 533d 23f1 2e3d 4587 853d f001 403d
00000130: f644 d33b d06c 233d 40ec 0bbd 2da5 833d
00000140: 95ab 5c3d c8b1 aabd 4233 c0bb d91b 4c3d
00000150: 46a7 17bd a0da b73b 489d 123d c4f6 753d
00000160: 1c15 b53b bfe1 10bd e9eb 933d 3312 2b3d
00000170: ae64 13bb b202 b13c 546f 543c 5546 013d
00000180: a02c 9b3c 7558 1f3c ef2c 1b3d fe65 ff3c
00000190: 37a6 773c fe13 d73c 5814 ae3b dd2a e03b
000001a0: 5ad9 313d c3bb cebb 96af e43c d2ef 7e3d
000001b0: f824 08bd bab7 7c3d 7eef 7bbc 53d1 703d
000001c0: 96a4 ab3c 0ea6 733d c97e a33c 27b2 833d
000001d0: ce8f c93b d6b9 a63a 9edb 913c cbe0 b03d
000001e0: 2354 1e3d 9f2e ab3d 05f7 49bd 7481 8aba
000001f0: 9856 2e3d 26bc 353d ffcd 503d 744a ae3d
0.066015005 -0.008647245 -0.029908689 0.011030525 0.032565255 0.06794646 -0.011390289 0.04181392
-0.055133708 -0.0028335336 0.034050215 0.026748937 0.022318292 0.051723573 0.03715188 -0.014950047
0.007731364 -0.0016199915 -0.004078922 0.032453742 -0.020252781 0.0031519753 0.05684535 0.013669458
-0.026645724 0.029605232 -0.003708938 0.014600885 0.022058148 0.038521666 0.03623235 -0.008307897
0.024639614 0.03890492 0.009990044 0.053199515 0.079293534 0.07646496 0.07476669 0.010652013
0.051366176 0.021988038 0.024419826 0.038852986 0.025932316 -0.022188026 -0.02774931 -0.024531692
0.013248055 -0.025478961 0.047646604 0.007668056 0.031373568 -0.026102146 0.029615007 -0.0007257775
0.04573227 -0.016646959 0.025916135 -0.018044015 0.054808598 0.007882665 0.0043163532 0.025201805
0.04109871 -0.0054931873 0.031655893 0.06908446 0.03347923 -0.05073236 -0.033979945 0.016170032
0.051748052 0.042710435 0.06519941 0.046876848 0.00644743 0.039898694 -0.034160852 0.06427989
0.05387457 -0.0833469 -0.0058654854 0.049831245 -0.03702476 0.005610779 0.035794526 0.060049787
0.005526198 -0.03537154 0.07222731 0.041765403 -0.002249043 0.02160773 0.012965996 0.031561214
0.018942177 0.00972568 0.03788465 0.031176563 0.015115312 0.02625465 0.0053124838 0.006841047
0.043420173 -0.006309004 0.027915757 0.06224043 -0.03323838 0.061698653 -0.015376924 0.058793377
0.020952504 0.059484534 0.019957917 0.06430464 0.006151176 0.0012720178 0.017804917 0.08636626
0.038654458 0.08358502 -0.04930784 -0.0010567144 0.04256305 0.044368885 0.050977703 0.085102946

network_body._body_endoder.seq_layers.2.weight f4 [128, 128]
00000000: fd09 153d be14 a63c e36b 893c 8c3d 2dbe
00000010: 3ccc 8e3d 4cb6 f8bc 9a86 acbd 52c8 67bd
00000020: 27ad 9cbd 9048 dc3d 0f26 e33d c9fb 9e3d
00000030: f0c7 a43c 279e 313d 808f fcbd 8c56 a9bc
00000040: 07c8 09be fd83 9ebd 96c2 7cbd b2cc babd
00000050: 721f 42bd 67ec 073d 42de 19be 7b68 253d
00000060: 3c20 9c3d 2de4 babd ce7b f3bc c7fb bcbd
00000070: e2cc 133e 4ef2 acbc 18ca 093d ff20 b1bd
00000080: 6223 203c cc36 2d3d eee4 0bbc 6cd7 953d
00000090: 4c4e ccbd 7059 0dbe 89d0 d93c 211a 703d
000000a0: d56f 4739 254a 923c 29e2 573d 8966 8c3c
000000b0: 5492 fcbd bd9b 3a3e 3da2 cc3a e10e 43bd
000000c0: c89a d83d d9a5 353d 97fa 13bc 4918 62bd
000000d0: f9e5 01be 030d 0c3e af92 333c 8807 7bbd
000000e0: ba91 3a3d 5df6 debd 7e35 7f3d 4c64 e33c
000000f0: 69e9 86be 426e 3a3d 5c4e 653d 8521 723c
00000100: 5b9e 49be 474a 21b9 d52a 2abe 9aae 823c
00000110: ce84 a7bd 34fb 8b3d bbb8 3d3e dbf1 ff3d
00000120: 1e7d 0e3d b468 463e 557e 0c3e 5c07 1f3d
00000130: 54e3 953d 26ca a7bd cfd7 16be 3986 c83d
00000140: de35 5f3c 6e75 54bd 0a90 f3bd cfc9 2cbc
00000150: b813 7fbd daaa c43c 4ceb 75bd e47c 183d
00000160: 1b28 86bd 57a9 63bd 96d4 1e3d 5ef6 fb3c
00000170: 89cd 123d 4c39 d53d 5b13 6cbb 7c84 d03d
00000180: d502 9ebd 1136 7dbc bb6f 813d f3ee 28be
00000190: ed9c 813d 4278 03be 9c88 f7bd cfa7 43be
000001a0: 48cb c3bb 13df 13bd 115c f3bd 50f6 82bd
000001b0: 38c4 0b3d 0b56 113e d126 3c3c 3e20 58bd
000001c0: ab3d a13d 8c8d 273e 5bb6 6dbd b680 013c
000001d0: f3c2 0b3d 13ad 7f3d 61ef 19be 0e4a 28bc
000001e0: eec6 a7bd 4eca 2cbd 6b59 cd3d f647 3a3d
000001f0: 7959 d0bd 4f8b 463d 165b f6bc 4176 a3bb
00000200: be6e 90bc ef0e 40bd 9549 0a3c cf9d c9bc
00000210: 1f3e 43bd cc56 9cbc 45f1 95bd d2da 80bd
00000220: dfcb a33d ecf0 d8bc 7b89 c03a c515 98bd
00000230: ec4d 903c 0e39 393e 325c ccbc 4259 623b
00000240: b4f4 ddbd 2b74 573d fe55 60bc 52a2 723c
00000250: b06d c2bd 4a8f 89bd 4c98 453b 21fa 1bbd
00000260: 6d0e 963d 1a8a 08bd 9c63 13bd d325 773d
00000270: 6dc2 043e f064 263d 9159 79bc 034f 163e
00000280: 697f b0bc dec4 39bd af2d 00be b1ff 9c3c
00000290: 7003 2cbd 25c0 9a3a aacd 2a3c d0c1 003d
000002a0: 1deb 0fbc 3b6a 1cbd ebc2 0fbe 7ba9 123e
000002b0: 76d2 34bd fdf8 c13d c353 59bd 990e c3bd
000002c0: 2d49 243d 41a5 4fbe 44e8 88bc 6d5d bf3c
000002d0: 0f25 b93c 84ad d0bc 5b8d d6bd 52d2 9c3d
000002e0: 71bc 58bd 90e3 bbbd 1635 27be 27d9 8e3c
000002f0: b846 38bd f01f 25be 84c3 ff3c bc07 c43c
00000300: b1c5 023d 2ea2 28bd d35a 233e 13b9 fa3d
00000310: d78c 3a3e 751a 253d 1ae2 05bb 9c38 ed3d
00000320: 51b5 01bd b8cf 5dbc f89e 65bd 52ce 90bd
00000330: 8e85 053d 8f6a 583d 48f0 673d 275f 86bd
00000340: 9901 9dbc 14cf 493e 66c6 b0bd 02e7 a3bd
00000350: 40f4 50bd 60cf f63c 032a 3bbd 6414 133e
00000360: a275 46bd e3a9 863c e9ef 63bd bc56 173d
00000370: 01b0 113e 34a4 1cbd c6b8 a5bd c5c8 85bc
00000380: 2d8f a03d 7cdc 50bd 7fa4 34bd d3d3 803d
00000390: 79cd 67bd 5344 6a3e 62b8 883a 65a6 1b3e
000003a0: 74c6 f93d 4574 583e b397 b23d d0f6 b63b
000003b0: 36ca 5a3d a783 7ebc acf9 0d3d d9ed 243d
000003c0: a9ab 38be c7d1 aabc d7fa bfbc 3eca 1d3d
000003d0: b722 1d3d 88ed 223e e987 36bd 620d 803c
000003e0: c1b6 2abc d6c1 023e 1955 22bc d7a4 aa3d
000003f0: b7b6 94bd 5762 9abd ec1c 04be 6319 353e
0.03638648 0.020273563 0.016775077 -0.1691801 0.06972548 -0.030360363 -0.08424111 -0.056587525
-0.07650214 0.10756028 0.110912435 0.07762868 0.020114869 0.043363716 -0.12332058 -0.020671152
-0.1345521 -0.077400185 -0.06170901 -0.09121074 -0.04739327 0.033184435 -0.15026191 0.040382843
0.07623336 -0.09125552 -0.02972212 -0.0922771 0.14433625 -0.021111634 0.033639997 -0.08648872
0.009774061 0.042288586 -0.008538468 0.07316479 -0.099758714 -0.13803649 0.026588695 0.05861867
0.0001901978 0.01785762 0.052705918 0.017138736 -0.123325974 0.18223472 0.0015612316 -0.04762161
0.10576397 0.044347618 -0.009031913 -0.05519894 -0.12685384 0.13676839 0.010960265 -0.06128648
0.045549132 -0.10886834 0.062306874 0.027757786 -0.26349953 0.045515306 0.055982932 0.0147784995
-0.19689314 -0.00015381827 -0.16617902 0.015952397 -0.08179627 0.068350226 0.185275 0.12497302
0.03478729 0.19375879 0.13720067 0.038825378 0.0731875 -0.08192854 -0.14730762 0.09791226
0.013623683 -0.051869802 -0.11892708 -0.010546162 -0.062274665 0.02400725 -0.06003885 0.03722848
-0.06550618 -0.055581417 0.038776956 0.030757125 0.035840545 0.10411319 -0.003602228 0.101815194
-0.07715384 -0.015454785 0.06320139 -0.16497402 0.06328759 -0.12838843 -0.12086603 -0.19106983
-0.0059751607 -0.036101412 -0.11882795 -0.06394637 0.034122676 0.14192979 0.011483864 -0.052765124
0.0787309 0.1636259 -0.058035236 0.007904222 0.034121465 0.062420916 -0.15032722 -0.010271562
-0.0819224 -0.04218512 0.10026821 0.045478784 -0.101733156 0.0484727 -0.03007273 -0.004988462
-0.017630931 -0.04688924 0.008440395 -0.024611382 -0.047666665 -0.019084357 -0.07321409 -0.06291737
0.0799787 -0.026482068 0.001468941 -0.07426027 0.017615281 0.18088171 -0.024946306 0.0034538065
-0.10837689 0.05260102 -0.013692377 0.014809208 -0.094935775 -0.06716783 0.003015059 -0.03808034
0.0732697 -0.03333483 -0.035983667 0.060338806 0.12964793 0.040623605 -0.015219108 0.14678578
-0.021545129 -0.045353763 -0.12517427 0.019164892 -0.041995466 0.0011806531 0.010425011 0.031434834
-0.008784083 -0.038187247 -0.14039199 0.14322464 -0.044146024 0.09471319 -0.053058397 -0.09524269
0.04010885 -0.20277883 -0.016712315 0.023359979 0.022600679 -0.025473364 -0.1047618 0.07657303
-0.052914087 -0.091742635 -0.16328844 0.01743753 -0.044989318 -0.16125464 0.031221159 0.02392947
0.031926814 -0.04117029 0.15952615 0.12242331 0.18217789 0.040308435 -0.0020428956 0.11583063
-0.031667057 -0.013538294 -0.056059808 -0.070706025 0.03259807 0.052835997 0.056625634 -0.065611176
-0.0191658 0.197079 -0.086315915 -0.080030456 -0.051014185 0.030128181 -0.045694362 0.14363247
-0.048452027 0.01643843 -0.055648718 0.03694795 0.14227296 -0.038242534 -0.08091883 -0.016331086
0.078398086 -0.05099152 -0.04410219 0.06290402 -0.05659244 0.22877626 0.0010430927 0.15200193
0.12196055 0.21138103 0.087203406 0.0055836216 0.0534155 -0.015534318 0.034661934 0.04026589
-0.18034233 -0.020851983 -0.02343504 0.03852295 0.038363185 0.15910923 -0.044563208 0.015631381
-0.0104195485 0.12769255 -0.009907984 0.08332222 -0.072614126 -0.07538288 -0.12901658 0.17685466

network_body._body_endoder.seq_layers.2.bias f4 [128]
00000000: cdb8 233d 25fb d2ba 29c5 a0bc aba9 203d
00000010: 200f 443d c697 113d 743c 503d 63ec 763d
00000020: b87a a53c 1007 a03c 34aa 743d 9e74 e5b9
00000030: 19c0 243d 9140 acbb 77c6 5d3d 8de9 573d
00000040: e84f 4c3d 9126 3cbc a768 c43c 4170 043c
00000050: 8727 c03b 3df2 49bb 2d02 e3bb 4aff 0d3d
00000060: e25a 8d3d 14b6 2d3d 3bce ba3a 287a bd3a
00000070: d681 8d3c 1be9 6b3d 0b6f 0b3d 03c0 033d
00000080: 97fc 253d a2e9 043d 825b 28bb 4cec 2f3d
00000090: aee0 593d fad1 933c 0d4d 1c3d b2d6 e339
000000a0: b948 5e3d c333 2b3d 6af9 c33c 97cc acba
000000b0: 3f56 953d 0315 763c a436 923b da01 3fbb
000000c0: 0e7d 603d 5188 323d a124 1f3b 6069 6a3d
000000d0: 8117 163c f63e b13c a475 6b3c b6c2 253d
000000e0: 9c56 4f3d ebb2 71bc 557a ec3c bf09 00bc
000000f0: 161f 093d 2a84 e4bb 7055 883d 504b 49bc
00000100: 34e3 303c bef7 643c bccf 5d3b 5705 2a3d
00000110: 1cba 1e3a 96ec 313d c914 4e3d c376 733b
00000120: 4e47 77bc 01f6 1d3d 4028 4b3d b16c 6c3b
00000130: 76ba 013c 60da 8e3c a628 93bc 1b9b 873d
00000140: 08dc bfba d884 12bb 32df 483c fdd2 d9ba
00000150: ba3e 85bc b71f 663d b754 993c a648 8b3d
00000160: b7ff 233d 7eab 7c3c 424d ccbb 76b2 883d
00000170: 3af3 a23c aba2 4e3d c8a5 783d d85d ab3b
00000180: 1b7e 63ba e6f1 c23c 1cd1 873d 76b3 deb9
00000190: 7553 843d 4d5c 0dbb 08fe d13c b05a f83c
000001a0: 82c5 783d be2a 903d 1a97 3e3d 20a0 be3c
000001b0: 31ac 523d 4452 963c b690 503c 44fe 713d
000001c0: 8d6d c93c 136b eaba 9a86 843c 357f c43c
000001d0: d256 4a3d 8c36 5f3d 67c7 843d 9b5b 973d
000001e0: ef67 533d 5113 263d 97fb 1e3c 7d6a dd3c
000001f0: 8028 213c 05ce 403d 53f4 383d 1804 5c3d
0.03997116 -0.0016096575 -0.019625263 0.039224308 0.047865987 0.035545133 0.050838903 0.06028403
0.020200118 0.019534618 0.05973263 -0.0004376517 0.04022226 -0.0052567204 0.05414435 0.052712966
0.049880892 -0.011483804 0.023975683 0.008083404 0.005864087 -0.0030814551 -0.0069277496 0.03466729
0.069021 0.04240997 0.0014252135 0.0014455961 0.017273825 0.057595354 0.034041446 0.03216554
0.04052409 0.032449372 -0.0025689309 0.04294996 0.053192787 0.01804446 0.03815942 0.00043456774
0.054268572 0.04179741 0.02392264 -0.0013183531 0.07291841 0.015019658 0.00446208 -0.002914539
0.05480676 0.043587033 0.0024283307 0.0572294 0.009160877 0.021636467 0.014371309 0.040468894
0.050619707 -0.01475213 0.028866926 -0.007814824 0.03347691 -0.006973763 0.06656921 -0.012286022
0.010796357 0.013975082 0.0033845743 0.041509 0.0006054954 0.043438517 0.05031279 0.0037149645
-0.015092684 0.038564686 0.049598932 0.0036075527 0.007917991 0.017438114 -0.017963719 0.06621381
-0.0014637718 -0.0022357013 0.012260245 -0.0016618666 -0.016265262 0.05618259 0.018717153 0.06800966
0.04003879 0.015421746 -0.006234796 0.06674664 0.01989137 0.0504481 0.060704976 0.005229693
-0.0008678154 0.023796987 0.06631681 -0.00042476848 0.06461231 -0.0021569908 0.025633827 0.03031668
0.060735233 0.070394024 0.04653082 0.023269713 0.051433746 0.018349774 0.012729814 0.059080377
0.02458837 -0.0017884694 0.016177464 0.023986438 0.049399205 0.05449538 0.064833455 0.07390519
0.05161279 0.040545765 0.009703538 0.027028317 0.009836316 0.047071476 0.04515488 0.05371484

action_model._continuous_distribution.log_sigma f4 [1, 2]
00000000: 25f3 a5bd 4da1 a2bd
-0.08103017 -0.07940922

action_model._continuous_distribution.mu.weight f4 [2, 128]
00000000: 1d8a 423d 0a4b e2b9 58d0 223c e9ad 40ba
00000010: 8936 6abd f069 053d 4de6 4ebd 7d2a 4f3d
00000020: 7e60 4bbd 7eaa b63b d832 303d b6c3 d7bc
00000030: 6808 2a3d 7d0c a13c 42bf 663d cc00 c13c
00000040: 2da3 943d 3145 33bc 0fa5 d4bc 1976 7e3b
00000050: 66b5 793c 5838 343c e3eb 95bc aefc 0a3d
00000060: e740 30bd 4959 973c 3c04 26bc d56e e23c
00000070: 7134 373d e1a1 f4bc 0b55 453d 84b3 c13c
00000080: daad 96bd fd35 433d e96e 06bd f123 4f3d
00000090: 5a08 2b3c d490 3cbb 5cea 673d 6428 8ebc
000000a0: 3b8f c5bd 7937 d8bb 41fe 48bd a63e dcbc
000000b0: 5a48 a13d 9531 9fbc 06bd 4cbc 8119 b23c
000000c0: 3540 8ebc 6be2 283d 0839 2a3d 44a1 5e3d
000000d0: c583 cebc a162 3fbd a415 44bb 4ba0 b43c
000000e0: 5cd2 c1bc a4ba 87bc 8bf6 503d 39aa efba
000000f0: 09f0 843a aea3 14bc 70d3 99bd 3a90 b9b7
00000100: ac1e f13c 4fa7 00bc 9f85 cfbc e34e 6b3d
00000110: 0e99 dfbc 6ede 47bd a3a8 3b3d 2b09 5fbc
00000120: 8e91 e6bc 4561 dcba 2cd1 a0bd aa49 d93c
00000130: 73a2 07bd 695d bc3c 70df d3bb b2a3 9fbd
00000140: e937 12bc 34aa 96bc 53fb 65bd ce60 973c
00000150: 0e68 b1bc 4202 e4bb 4a7d 483c 9c22 50bd
00000160: a310 153d 3222 7cbd 5bf6 f5bb 4d61 91bd
00000170: 19e8 103d 1878 f0bc c2d6 7f3d b392 c6bc
00000180: f758 a1bc de0a 1cbc 11de a03d ff32 c93c
00000190: 6474 df3d 67b9 a6bc 97d6 653c 6787 13bd
000001a0: 4e58 883d 8dc6 243d 12ab 72bd eae5 b13c
000001b0: e9ff 893d c834 6ebd 80f2 473c 730c ae3d
000001c0: 1a8e dd3c 6b9f 8e3c 24f1 343d 0f56 493d
000001d0: 8658 1dbd 3e20 06bd f00c bc3c bc50 90bd
000001e0: 2db8 25bc 3481 eebc bf0d 6ebc c5b3 9bbb
000001f0: 8699 033d e2f2 3c3d b4b5 c03c 0ad1 01bc
00000200: 7d43 38bd 4599 0b3d e61c 2a3c cb0c 4bbd
00000210: e471 cabb 4aeb 843d 3cd7 113d 25c2 a8bd
00000220: c980 13bc 69ef 2c3d 05e2 11bd a41e 743c
00000230: dbe3 fabc b3a1 e73c dc81 ac3d 49a4 d4bc
00000240: 443d 22bd 2f5b 5e3c 773f d6bc cd74 08bd
00000250: 4e29 a2bc 542c 883b 5f9f 55bc df81 4e3d
00000260: 8003 9c3d c750 09bd 6c38 293d 61f5 0a3d
00000270: a5a2 123b 2922 fbbc 59d7 f43c 23b4 ddbc
00000280: f454 853d 1920 063c 9fc3 043c 852f 173d
00000290: 8e63 58bd 267a 16bd 0c43 8a3d d877 81bc
000002a0: 73f1 a73d 3926 ccbd 8ace e2bc 3978 173d
000002b0: a1ce 6f3d 6947 4a3d 45fd 02bd ada2 aa3c
000002c0: e667 b4bd e9f7 a6bd 7467 92b8 4883 d43c
000002d0: 0b72 36bd 5fdb 30bd b146 053d 904b dabc
000002e0: 2856 92bd c586 933b f2bf 0b3d fc85 673c
000002f0: 872a e0bc 51c6 ce3c 8703 e3bc 905d 88bc
00000300: eb21 173d 2d31 e3bc 110c 6ebb 4545 74bc
00000310: 6979 3dbc 4b3f 16bd adb8 e73b c443 f2bb
00000320: 6fb2 ea3c 8702 813d 4d46 043d 6681 e239
00000330: 5722 2b3b c524 d83c 8d52 983c 86c6 84bd
00000340: 0453 b03c d8dd 8ebc 5f01 433d a136 073d
00000350: 1bfa 583c f97e b13d aaf9 223d 4187 49bd
00000360: 2386 0b3d 99b5 a9bc 522a 1e3d 834f 093c
00000370: 563f f9bc 1c8b 80bd 9b27 a6bc 657f afbb
00000380: 93b5 423c 8b99 a0bc 9256 ee3b 49c1 493c
00000390: 280d 593d 47f3 acbb 16f4 83bc 1243 263d
000003a0: f191 70bd 308b 9c3d af40 743d 37de 70bc
000003b0: 4ad8 d6bc 2a78 963c 7481 223d 821f 2e3c
000003c0: daf7 8dbd 5502 99bc 547e 863c 4f5a 3d3c
000003d0: 9a38 853d d020 51bd 7a83 77bd c783 af3d
000003e0: b566 8ebd acb2 fcbc 9daf 263d e8e7 28bd
000003f0: ab88 bc3b 8bef 2bbc ef39 84bc 57b1 bdbd
0.047494996 -0.00043161988 0.009937368 -0.00073501334 -0.057180915 0.032571733 -0.0505126 0.05057763
-0.04965257 0.0055745235 0.04301724 -0.02633844 0.041511923 0.019659275 0.05633474 0.02355995
0.07257686 -0.0109417895 -0.025957612 0.0038827716 0.015241003 0.0109997615 -0.018300956 0.03393238
-0.043030646 0.018475192 -0.0101328455 0.02764074 0.044727746 -0.029862346 0.048176806 0.02364517
-0.07357378 0.04765891 -0.032820616 0.050571386 0.010439003 -0.0028772848 0.056619987 -0.017353244
-0.0964646 -0.0065984097 -0.0490706 -0.026885342 0.07875128 -0.019432822 -0.012496239 0.021740677
-0.0173646 0.041231554 0.041558295 0.054353014 -0.025209317 -0.04672492 -0.0029920125 0.02204909
-0.023659877 -0.01656849 0.05101637 -0.0018284983 0.0010142337 -0.009072227 -0.07511032 -2.212088e-05
0.02943357 -0.0078523895 -0.02533227 0.05744828 -0.027294662 -0.04879611 0.04581512 -0.013613026
-0.028145578 -0.0016813657 -0.07852396 0.026524384 -0.033113908 0.02299376 -0.006465845 -0.07794894
-0.008924463 -0.018391706 -0.056147885 0.018478777 -0.021656062 -0.006958277 0.0122369025 -0.050814256
0.03639282 -0.06155605 -0.0075061745 -0.07098637 0.035377596 -0.02935414 0.06246067 -0.024239874
-0.019695742 -0.009524075 0.07854856 0.02456045 0.109108716 -0.020352079 0.014028213 -0.0360178
0.06657468 0.040228415 -0.059245177 0.021716077 0.06738264 -0.058155805 0.012203813 0.08498468
0.027045298 0.01741 0.044175282 0.049154337 -0.0384145 -0.032745592 0.022955388 -0.07046649
-0.010114712 -0.029114343 -0.0145296445 -0.004751655 0.032128833 0.04613007 0.023524143 -0.007923374
-0.044986237 0.034081716 0.0103828665 -0.049572747 -0.0061781276 0.0649019 0.035605654 -0.08240155
-0.009002873 0.042220507 -0.03561594 0.014899883 -0.030626228 0.028275346 0.08423206 -0.025957244
-0.03960921 0.013571545 -0.02615331 -0.033314515 -0.019795086 0.004155675 -0.013038485 0.050416823
0.07617855 -0.0335243 0.041313574 0.033925418 0.0022374776 -0.030655937 0.029887842 -0.027063435
0.06510344 0.008186364 0.00810328 0.036910553 -0.052829318 -0.036737584 0.067510694 -0.015804216
0.0820035 -0.09968228 -0.027686376 0.036979888 0.058546666 0.04938451 -0.031979818 0.020829523
-0.088088796 -0.08152754 -6.981092e-05 0.025941506 -0.044542354 -0.04317796 0.03253812 -0.02664736
-0.07145339 0.0045021498 0.0341186 0.014131065 -0.027364029 0.025241049 -0.027711643 -0.016646177
0.03689758 -0.02773341 -0.003632311 -0.014909093 -0.011564591 -0.036681455 0.0070715756 -0.007393332
0.028649537 0.0629931 0.032293607 0.00043202488 0.0026112997 0.02638472 0.01859405 -0.06483178
0.02152396 -0.017439768 0.04760873 0.033011083 0.013243224 0.08666796 0.03978888 -0.049201254
0.03406347 -0.020716475 0.03861458 0.0083807735 -0.030425709 -0.06276533 -0.020282557 -0.005355763
0.011884111 -0.019604465 0.0072735036 0.012314149 0.052991062 -0.0052780244 -0.0161076 0.040591307
-0.05873293 0.076437354 0.059632 -0.014701418 -0.026226182 0.018367846 0.039674237 0.010627629
-0.069320396 -0.01867787 0.01641766 0.011557176 0.065049365 -0.051056683 -0.06042812 0.085700564
-0.069531836 -0.030846916 0.04069482 -0.041236788 0.005753597 -0.010494123 -0.016140906 -0.092623405

action_model._continuous_distribution.mu.bias f4 [2]
00000000: 14aa 293c e76a 41bc
0.010355491 -0.011805273
